…
nd_positions.shape)"]},{"cell_type":"code","execution_count":44,"metadata":{"id":"NnMrUYulfyy_","executionInfo":{"status":"ok","timestamp":1709722270950,"user_tz":0,"elapsed":609,"user":{"displayName":"Amaljith U K","userId":"12965048598593176892"}},"colab":{"base_uri":"https://localhost:8080/"},"outputId":"114574b7-82f4-4fab-bc8c-d0915d6eafff"},"outputs":[{"output_type":"stream","name":"stdout","text":["Working on cpu\n"]},{"output_type":"execute_result","data":{"text/plain":["BertMultiHopForQAWithDense(\n","  (bert): BertModel(\n","    (embeddings): BertEmbeddings(\n","      (word_embeddings): Embedding(30522, 768, padding_idx=0)\n","      (position_embeddings): Embedding(512, 768)\n","      (token_type_embeddings): Embedding(2, 768)\n","      (LayerNorm): LayerNorm((768,), eps=1e-12, elementwise_affine=True)\n","      (dropout): Dropout(p=0.1, inplace=False)\n","    )\n","    (encoder): BertEncoder(\n","      (layer): ModuleList(\n","        (0-11): 12 x BertLayer(\n","          (attention): BertAttention(\n","            (self): BertSelfAttention(\n","              (query): Linear(in_features=768, out_features=768, bias=True)\n","              (key): Linear(in_features=768, out_features=768, bias=True)\n","              (value): Linear(in_features=768, out_features=768, bias=True)\n","              (dropout): Dropout(p=0.1, inplace=False)\n","            )\n","            (output): BertSelfOutput(\n","              (dense): Linear(in_features=768, out_features=768, bias=True)\n","              (LayerNorm): LayerNorm((768,), eps=1e-12, elementwise_affine=True)\n","              (dropout): Dropout(p=0.1, inplace=False)\n","            )\n","          )\n","          (intermediate): BertIntermediate(\n","            (dense): Linear(in_features=768, out_features=3072, bias=True)\n","            (intermediate_act_fn): GELUActivation()\n","          )\n","          (output): BertOutput(\n","            (dense): Linear(in_features=3072, out_features=768, bias=True)\n","            (LayerNorm): LayerNorm((768,), eps=1e-12, elementwise_affine=True)\n","            (dropout): Dropout(p=0.1, inplace=False)\n","          )\n","        )\n","      )\n","    )\n","    (pooler): BertPooler(\n","      (dense): Linear(in_features=768, out_features=768, bias=True)\n","      (activation): Tanh()\n","    )\n","  )\n","  (additional_layers): ModuleList(\n","    (0-1): 2 x Linear(in_features=768, out_features=768, bias=True)\n","  )\n","  (dense_layers): ModuleList(\n","    (0-1): 2 x Linear(in_features=768, out_features=768, bias=True)\n","  )\n","  (linear_start): Linear(in_features=768, out_features=1, bias=True)\n","  (linear_end): Linear(in_features=768, out_features=1, bias=True)\n",")"]},"metadata":{},"execution_count":44}],"source":["device = torch.device('cpu') if torch.cuda.is_available() else torch.device('cpu')\n","print(f'Working on {device}')\n","model.to(device)"]},{"cell_type":"markdown","metadata":{"id":"H3YDNh1772ow"},"source":[]},{"cell_type":"code","execution_count":44,"metadata":{"id":"5jzIeSz4leSn","executionInfo"
…
